models/saves/best_model.pt (torch, 3427 bytes, 7 tensors)

hidden1.weight f4 [2, 4]
0	0x3e59d540	0.21272755
1	0x3fab13a0	1.3365364
2	0x3e221f96	0.15832362
3	0x3cce4240	0.025178075
4	0x3b7de1e5	0.003873938
5	0xbf8c7593	-1.0973381
6	0xbe94cb21	-0.29061225
7	0x3c04101b	0.0080604805

hidden1.bias f4 [2]
0	0x3ebfe30e	0.37477916
1	0x3e3cd930	0.18442225

bn1.weight f4 [2]
0	0x3f73878a	0.9512869
1	0x3f876d78	1.0580282

bn1.bias f4 [2]
0	0x3e2b8589	0.16750158
1	0x3ea4c23b	0.32179436

bn1.running_mean f4 [2]
0	0x3f46de26	0.7768272
1	0xbe6a41e7	-0.22876702

bn1.running_var f4 [2]
0	0x3dde7d6a	0.108637646
1	0x3c8cd565	0.017191598

output.weight f4 [1, 2]
0	0xbd37d460	-0.04488027
1	0xbdcdbd5f	-0.10045885
