models/best_model_1.pt (torch, 3427 bytes, 7 tensors)

hidden1.weight f4 [2, 4]
-0.0035291652 -1.0394517 -0.20526387 -0.12803245 -0.032002617 0.21942772 0.05134759 -0.3363627
00000000: 9149 67bb c10c 85bf b130 52be f01a 03be
00000010: 2d15 03bd a9b1 603e da51 523d bb37 acbe

hidden1.bias f4 [2]
-0.43015552 -0.029917276
00000000: 583d dcbe 1315 f5bc

bn1.weight f4 [2]
1.0862495 0.8009011
00000000: 390a 8b3f db07 4d3f

bn1.bias f4 [2]
0.14474638 -0.16190411
00000000: 6538 143e 31ca 25be

bn1.running_mean f4 [2]
-0.77816117 0.064106524
00000000: 9235 47bf 484a 833d

bn1.running_var f4 [2]
0.053153325 0.116152346
00000000: 4db7 593d 48e1 ed3d

output.weight f4 [1, 2]
-0.15372406 0.16315147
00000000: d769 1dbe 2e11 273e
